…
        "colab": {
          "base_uri": "https://localhost:8080/"
        },
        "outputId": "04695382-97d1-4b2c-e458-1ad1b91d6fc5"
      },
      "execution_count": 8,
      "outputs": [
        {
          "output_type": "stream",
          "name": "stdout",
          "text": [
            "Model: \"sequential\"\n",
            "_________________________________________________________________\n",
            " Layer (type)                Output Shape              Param #   \n",
            "=================================================================\n",
            " conv2d (Conv2D)             (None, 26, 26, 32)        320       \n",
            "                                                                 \n",
            " batch_normalization (BatchN  (None, 26, 26, 32)       128       \n",
            " ormalization)                                                   \n",
            "                                                                 \n",
            " max_pooling2d (MaxPooling2D  (None, 13, 13, 32)       0         \n",
            " )                                                               \n",
            "                                                                 \n",
            " dropout (Dropout)           (None, 13, 13, 32)        0         \n",
            "                                                                 \n",
            " conv2d_1 (Conv2D)           (None, 11, 11, 64)        18496     \n",
            "                                                                 \n",
            " batch_normalization_1 (Batc  (None, 11, 11, 64)       256       \n",
            " hNormalization)                                                 \n",
            "                                                                 \n",
            " max_pooling2d_1 (MaxPooling  (None, 5, 5, 64)         0         \n",
            " 2D)                                                             \n",
            "                                                                 \n",
            " dropout_1 (Dropout)         (None, 5, 5, 64)          0         \n",
            "                                                                 \n",
            " conv2d_2 (Conv2D)           (None, 3, 3, 128)         73856     \n",
            "                                                                 \n",
            " batch_normalization_2 (Batc  (None, 3, 3, 128)        512       \n",
            " hNormalization)                                                 \n",
            "                                                                 \n",
            " max_pooling2d_2 (MaxPooling  (None, 1, 1, 128)        0         \n",
            " 2D)                                                             \n",
            "                                                                 \n",
            " dropout_2 (Dropout)         (None, 1, 1, 128)         0         \n",
            "                                                                 \n",
            " flatten (Flatten)           (None, 128)               0         \n",
            "                                                                 \n",
            " dense (Dense)               (None, 512)               66048     \n",
            "                                                                 \n",
            " batch_normalization_3 (Batc  (None, 512)              2048      \n",
            " hNormalization)                                                 \n",
            "                                                                 \n",
            " dropout_3 (Dropout)         (None, 512)               0         \n",
            "                                                                 \n",
            " dense_1 (Dense)             (None, 10)                5130      \n",
            "                                                                 \n",
            "=================================================================\n",
            "Total params: 166,794\n",
            "Trainable params: 165,322\n",
            "Non-trainable params: 1,472\n",
            "_________________________________________________________________\n"
          ]
        }
…
